{"name": "membrane_3inputs_nostiffness_force_damping_ic0hard_icv0_causality_t10.0_optimized_modifiedMLP", "model": "ImprovedMLP(\n  (U): Sequential(\n    (0): Linear(in_features=3, out_features=308, bias=True)\n    (1): SiLU()\n  )\n  (V): Sequential(\n    (0): Linear(in_features=3, out_features=308, bias=True)\n    (1): SiLU()\n  )\n  (hidden_layers): ModuleList(\n    (0): Linear(in_features=3, out_features=308, bias=True)\n    (1): SiLU()\n    (2): Transformer()\n    (3): Dropout(p=0.0, inplace=False)\n    (4): Linear(in_features=308, out_features=308, bias=True)\n    (5): SiLU()\n    (6): Transformer()\n    (7): Dropout(p=0.0, inplace=False)\n    (8): Linear(in_features=308, out_features=308, bias=True)\n    (9): SiLU()\n    (10): Transformer()\n    (11): Dropout(p=0.0, inplace=False)\n    (12): Linear(in_features=308, out_features=308, bias=True)\n    (13): SiLU()\n    (14): Transformer()\n    (15): Dropout(p=0.0, inplace=False)\n    (16): Linear(in_features=308, out_features=308, bias=True)\n    (17): SiLU()\n    (18): Transformer()\n    (19): Dropout(p=0.0, inplace=False)\n    (20): Linear(in_features=308, out_features=308, bias=True)\n    (21): SiLU()\n    (22): Transformer()\n    (23): Dropout(p=0.0, inplace=False)\n    (24): Linear(in_features=308, out_features=308, bias=True)\n    (25): SiLU()\n    (26): Transformer()\n    (27): Dropout(p=0.0, inplace=False)\n    (28): Linear(in_features=308, out_features=308, bias=True)\n    (29): SiLU()\n    (30): Transformer()\n    (31): Dropout(p=0.0, inplace=False)\n  )\n  (output_layer): Linear(in_features=308, out_features=1, bias=True)\n)", "epochs": 8000, "batchsize": 500, "optimizer": "Adam (\nParameter Group 0\n    amsgrad: False\n    betas: (0.9, 0.999)\n    capturable: False\n    differentiable: False\n    eps: 1e-08\n    foreach: None\n    fused: None\n    initial_lr: 0.002203836177626117\n    lr: 0.002203836177626117\n    maximize: False\n    weight_decay: 0\n)", "scheduler": "{
…
